实验二/part2/saved_model.pth (torch, 159871 bytes, 16 tensors)

features.0.weight f4 [16, 1, 3, 3]
00000000: 500e b73e 14db 0e3e cbfd 153e 2240 59be
00000010: e38a 4a3e f121 4cbe e69e 82be 9e68 30be
00000020: 3dc4 35be c866 a83d 03e9 0b3d a00d 0b3e
00000030: a7c6 0d3d 70f4 0fbe 69ec fdbd 213b bfbd
00000040: 083c 45be 3379 453e dbba 433e 5e2d a63d
00000050: 4c30 513e f6ed 563e a217 6cbd 9a49 afbd
00000060: c8ea 233e 7a39 be3d b227 35be e261 c43e
00000070: 5fa8 e23a ac79 9b3d f117 b93d 15d2 bb3e
00000080: 3ff5 13be cd15 b1bd b969 453e ac7d 713e
00000090: 4637 8ebe c9a5 89be f1ee d1bc cea9 9e3e
000000a0: 6a73 e03c 6dc7 b63d 85b0 50be 98a8 a3be
000000b0: 3f95 f63d 2110 843e f3ea b53e 44d5 963e
000000c0: 969c 363e d5b5 853d 8309 433d 6767 1b3e
000000d0: e2a7 08be df67 6fbe 0a37 27be bb3f 67be
000000e0: 9f3c b8bd 2651 67bd 9659 b0be facd 573e
000000f0: f5d9 9bbe 44b7 253e 861b 20bd 7d3a 423e
00000100: a561 a3be e24c 923e f59a 403e b6fd b9bd
00000110: bd60 7c3e 797a 54bd 232c 5fbe c392 3abe
00000120: ecdf 493e bc07 4fbe 2edb 9c3e fff9 f23d
00000130: e1fd 01be 078d 833e e372 33bd cdde 95be
00000140: c48d 13be deef a7be 9bb1 98be ca2c 0a3e
00000150: faec 6fbe e47d fcbd 42b1 91be ee62 7b3e
00000160: 6e83 de3d 0a60 23be d1de 07be 966c 51bc
00000170: b783 7a3e bcc1 8ebd 6712 03be 15cd 5ebe
00000180: 4e9c bc3d 7b27 91bd 9fb1 4f3e ddc9 133e
00000190: 0594 503e c869 b23e 0f53 46be f789 5bbe
000001a0: 3bee 823e 27e2 acbd 11f0 efbd 59e1 0b3e
000001b0: 4c94 30be 9400 473d 55b0 b73e bc18 9f3d
000001c0: 5b2f 9d3d fc00 893e e45b 65bd 168a 85be
000001d0: f4d2 d53d 6ae7 903e 2dc9 0a3d 2ddc 62bd
000001e0: 1237 8ebe 57ed 5d3d f334 e73c 3f56 63be
000001f0: accb dabc cc21 5b3e d7e7 0fbe 1113 9c3e
00000200: b52b 88be 9d27 4d3e 1ea9 c23a 1c59 1a3c
00000210: 78a2 263e d605 9fbe 24e1 993e cca9 e2bd
00000220: ecf8 b0be 5da9 2a3c 7bd9 8dbd af73 4dbb
00000230: 8a7a 573e 630f f03d 9334 223e cc9f 823e
0.35753107 0.13950759 0.14647596 -0.21215871 0.19779544 -0.19934823 -0.25511855 -0.17227408
-0.1775064 0.08222729 0.034157764 0.13579416 0.034613278 -0.1405809 -0.12398607 -0.0933745
-0.19261181 0.19284515 0.19114248 0.08114122 0.2042858 0.20989212 -0.057639726 -0.0855896
0.1600753 0.092883065 -0.17690924 0.3835593 0.001729261 0.075915664 0.090377696 0.36683717
-0.14449023 -0.08646736 0.19278611 0.23583096 -0.27776545 -0.26884297 -0.025626631 0.30988926
0.027398784 0.08924756 -0.20379837 -0.31964564 0.12040185 0.25793555 0.35530815 0.29459584
0.1783317 0.06528822 0.047616493 0.15176164 -0.13345292 -0.23379467 -0.1632959 -0.22582905
-0.089959376 -0.056473874 -0.3444335 0.21074668 -0.30439726 0.16183192 -0.03908875 0.18967624
-0.31910434 0.28574282 0.18809111 -0.09081595 0.24646278 -0.05187461 -0.2179418 -0.18220048
0.19714326 -0.20217794 0.3063597 0.11864089 -0.12694503 0.25693533 -0.043810736 -0.29271546
-0.14409548 -0.32800192 -0.29823002 0.13493648 -0.23430243 -0.12328699 -0.2845555 0.24549457
0.10864912 -0.15954605 -0.13268591 -0.012782237 0.24464308 -0.06970546 -0.12799989 -0.2175792
0.092095 -0.070876084 0.20282601 0.14432473 0.20368965 0.3484633 -0.19367622 -0.21439348
0.2557238 -0.08441573 -0.11715711 0.13660182 -0.17244071 0.048584536 0.35876718 0.077683896
0.07675048 0.26758564 -0.055995837 -0.26081914 0.10440627 0.28301555 0.033883262 -0.055385757
-0.2777639 0.054181423 0.02822349 -0.22200869 -0.026708446 0.21399611 -0.14053284 0.30483297
-0.26595846 0.20034643 0.0014851426 0.009420659 0.16272914 -0.3105914 0.3005458 -0.110675424
-0.34564912 0.010416356 -0.06926247 -0.003134947 0.21042839 0.11721685 0.15840368 0.2551254

features.0.bias f4 [16]
00000000: e4fa d63d d2e1 8ebe d801 78be 9fac a0be
00000010: 2cbd 6dbe cfdf d93d 28b9 c6bd 1f5e 343e
00000020: 8e27 9bbe f50e 473e ae42 d2bc b912 933e
00000030: c103 8f3c dd13 013e 9c34 6bbe c558 553e
0.10497072 -0.27906662 -0.24219453 -0.313817 -0.23216695 0.10638391 -0.097032845 0.1761403
-0.30303615 0.194393 -0.025666561 0.28725222 0.017457845 0.12605233 -0.22969288 0.20834644

features.1.weight f4 [16]
00000000: e567 823f 67b8 803f fe34 803f 0908 813f
00000010: 0100 7b3f 5954 833f c3e6 7d3f 7148 833f
00000020: ab4a 833f 66ec 793f 98a4 783f 8e77 7f3f
00000030: f257 803f c8eb 7c3f d81a 7c3f f91c 813f
1.0187956 1.0056275 1.0016172 1.0080577 0.9804688 1.0260116 0.9918024 1.0256482
1.0257162 0.9762634 0.9712615 0.997918 1.0026839 0.98797274 0.9847846 1.0086967

features.1.bias f4 [16]
00000000: 5cc3 90bd 5332 243a 72ef 06bd f985 ccbc
00000010: fbe5 4fbd 448d d3bc 9688 d0bc 1ef5 17bd
00000020: 2a72 df3b b706 23bd c781 00bd 22c5 e43b
00000030: 0246 fbbc 8678 3dbd 3505 31bd 516a 9bbc
-0.07068512 0.00062636024 -0.032943197 -0.024966227 -0.050756436 -0.025824197 -0.025455754 -0.037098996
0.0068190293 -0.039801326 -0.031373765 0.006981508 -0.03067303 -0.04625752 -0.043217856 -0.018971594

features.1.running_mean f4 [16]
00000000: 2b8f 1040 3c78 b03e 2503 e2c0 75a7 4cc1
00000010: e114 b940 3e82 2cc1 3448 1341 9db9 14bf
00000020: 468b 8fbf 74d8 2a41 e908 833f 4c09 a0c0
00000030: 0899 9ec0 2a59 a0be 3634 65c0 eb71 1fc0
2.2587383 0.34466732 -7.062884 -12.790883 5.7837987 -10.781797 9.205128 -0.58095723
-1.1214378 10.677845 1.0237094 -5.001135 -4.9561806 -0.31318027 -3.5813117 -2.491328

features.1.running_var f4 [16]
00000000: 6f7b ee41 e839 4840 3cf4 fc42 5886 cb43
00000010: 5945 c742 b2d0 a743 f6dd 6643 011e 6641
00000020: 29e1 8641 c052 9843 d822 d940 7bd1 aa42
00000030: d976 9742 3ec3 6040 090f f941 a216 f641
29.81027 3.1285343 126.47702 407.04956 99.635445 335.63043 230.86703 14.382325
16.859941 304.64648 6.7855034 85.40914 75.732124 3.5119166 31.132341 30.761051

features.4.weight f4 [32, 16, 3, 3]
00000000: 766d b53a 020e 833d 44e0 37bd f15e 1cbd
00000010: 14c5 3f3d 26c4 4abd 7299 5e3d 27fd 18bd
00000020: 2a7c 8bbd dc05 1cbb 475d 20bd b401 96bc
00000030: c53f 06bd 09a3 24bd 9f25 5a38 1703 0ebd
00000040: dd6a 32bd 303b 833d ebca 72bd 21be 08bd
00000050: 5b47 06bd 8ce4 a7bd 5ca1 b9bd 5771 bdbd
00000060: 04a7 79bb 919f 833d 301c 613d c1f4 7e3c
00000070: a88d c73c fedb 27bd fd5e cb3c 6e13 0d3d
00000080: 32d9 82bd 6b03 03bd 925f 733c bceb 4c3d
00000090: d945 8e3d 74f1 7abd 7848 9cbd ca80 583d
000000a0: f1af 66bd 8596 2c3d 6f23 603b b8c9 aabd
000000b0: 1b6f 183d a78c 0cbd bba0 9dbd ea3e b5bd
000000c0: 2c21 5dbd ffa0 5ebc 6c40 76bc 8301 29bd
000000d0: 73d1 96ba b3bd bebd 008c f93b 4d0f fabc
000000e0: ec9b a1bd 622d 573c f565 223b 4e63 66bd
000000f0: f9b2 3dbd a2fc 343d 2fd3 333d 5b7f 363d
00000100: ed19 343d 29c7 ac3c d2f8 9f3d 01be 51bc
00000110: bee8 a83d 464e a23d b5a6 09bc db26 733d
00000120: dc83 483d 9a7a 93bd 0f8e 403d 0865 6d3d
00000130: 170a 3e3d 8a45 db3d 8ba1 e0bc 1481 2c3b
00000140: 0806 b83d 66a3 833c 5aaa 633b 2571 61bd
00000150: ab7f 62bd 106e 30bd ccae 15bc 4fc0 173d
00000160: 9cf4 4dbd 72ae 0e3c c960 7f3d 0b8f c7bc
00000170: f525 293d 5ae0 9d3d 2945 be3c a448 ae3d
00000180: 40db 0f3d d3cb bf3c 18b6 c03d f464 253d
00000190: 8445 873c 31c4 3fbd c5b3 e4bc 566a e5bc
000001a0: 7f3a a7bd 6f46 94bc 9439 073c e18a 72bc
000001b0: 6758 38bd 3915 c03c 7579 b63b 41d1 9e3c
000001c0: a9cc 283d eaa4 243d d238 44bd 5618 893b
000001d0: 9c4d a4bd 0c55 353d 8808 e1bc b184 3a3d
000001e0: 4067 533c 5468 66bd abec b33c 2981 a43c
000001f0: fdd2 c33c e1f8 423b 2679 683d b591 4a3c
00000200: d8ba 6f3b bb55 21bd f7ec 66bd 2162 2f3d
00000210: ebdb a6bd d2a3 88bd 5789 613d c9c7 16bd
00000220: 46d3 49bd ca8c 6c3c cb6a 953c 51b0 313d
00000230: 278f c0bc b239 38bd 002f 34bd 393b 1abb
00000240: 0415 8abd 949b 533d e913 713d b854 9f3c
00000250: dfdf abbc fe07 873d 7e7d 2f3d b9ae 8f3d
00000260: 12cd 9b3d 2ff1 39bc 5f01 b63c 5cc8 85bc
00000270: 3fa6 753d 86a6 3ebd f9c3 b6bd 56cb b9bb
00000280: 0905 0bbd 1ab0 993d f2bd 5d3d cee7 1cbd
00000290: 83a8 d33d 0a7f d73d 8e24 ad3d 5ec0 58bd
000002a0: 5d60 9b3c 099d 0d3d 54ca 32bd 7b9d 923d
000002b0: 59ff 433d 529b 5b3d 19ff 33bd 0666 c4bb
000002c0: 9852 8b3d a033 353d e8e4 2b3d a3b6 9fbd
000002d0: 6e9c ab3d 3cab 943b 0465 ee3c bae5 d4bb
000002e0: eb4a 903c 7a16 f8bc 201f 283d d6b5 8f3c
000002f0: 229c ccbc aede d73d adc0 61bc 8baf a23d
00000300: 7b00 b23d 0e18 5abd 56fb fd3c a5bd e53c
00000310: cb8b ad3d 6aff 8bbd 4c09 4fbd 32ff 473d
00000320: ddb1 453d 7d43 52bc 221f 90bd 4bbf 1d3d
00000330: 6862 32bd 3ab2 373d f279 a63d 854d 803d
00000340: 4a81 433c bc0a b03a df11 41bd be5f 413d
00000350: 2ff3 e7b9 eca6 02bd 5d25 acbc b885 c0bb
00000360: 1e0d be3c f531 83bd f418 b6bc d770 043d
00000370: 1d6b 56bd 534a e2ba 7469 8abd 507f 7abd
00000380: 4bd0 523d e8aa a83d a36b 7dbd 419d 89bb
00000390: b571 5bbd 1e8d 883d 20fa 9b3c d9dc 64bd
000003a0: e538 833d c222 d93c c029 bdbc 174b 8abd
000003b0: 43d3 1fbd 2dd1 cc3c 7bb4 723b 125e 05bd
000003c0: 4e19 ebbb 8167 13bd 1d10 89bd 5e11 733c
000003d0: 73ab 81bc f3a5 bdbc 2f6a 51bd 6e67 55bd
000003e0: 67fe 16bb 61b5 713d 4b75 aa3d 8203 863d
000003f0: af77 953c 6528 e93d 4a1c 093d b251 0a3d
0.0013841826 0.06399156 -0.04489161 -0.03817648 0.046818808 -0.049503468 0.054345556 -0.0373508
-0.06810792 -0.0023807203 -0.039151456 -0.018311359 -0.03277566 -0.040194545 5.2010288e-05 -0.034670915
-0.043558944 0.064077735 -0.05927555 -0.033384446 -0.032782894 -0.08197889 -0.0906398 -0.092501335
-0.0038093934 0.06426919 0.054958522 0.015561284 0.02435954 -0.040981285 0.024825567 0.034442358
-0.06389083 -0.03198568 0.014854329 0.0500295 0.06946916 -0.061265424 -0.0763101 0.052857198
-0.056320135 0.042135734 0.0034200808 -0.08339256 0.037215333 -0.034313824 -0.076966725 -0.088498905
-0.053986713 -0.013588189 -0.015030008 -0.041261207 -0.0011506513 -0.09313526 0.0076155663 -0.030524874
-0.07891068 0.013133379 0.002478001 -0.056247048 -0.04631326 0.044186242 0.043902572 0.04455505
0.043970037 0.02109106 0.078111306 -0.012801648 0.08247517 0.07925086 -0.008401562 0.059363227
0.048953876 -0.07201119 0.047010478 0.05795768 0.04639634 0.10706623 -0.02742078 0.0026322054
0.08985525 0.016069125 0.0034738989 -0.055039544 -0.055297535 -0.043073714 -0.009135913 0.037048634
-0.050282106 0.008708583 0.06234816 -0.0243602 0.041295964 0.07708807 0.023226338 0.08509949
0.035121202 0.02341262 0.094097316 0.04037948 0.01651264 -0.046817962 -0.027917752 -0.028004806
-0.08165454 -0.018099992 0.008253474 -0.014803619 -0.045006182 0.02344762 0.005568678 0.01938689
0.041210804 0.040196337 -0.04790575 0.0041838093 -0.08022615 0.04427056 -0.027469888 0.0455367
0.012903035 -0.05625184 0.021963438 0.02008112 0.023904318 0.0029750394 0.05675616 0.012363841
0.0036579873 -0.0393884 -0.05637833 0.042818192 -0.08147415 -0.06671871 0.055062618 -0.036811624
-0.04927375 0.014437864 0.0182394 0.04338104 -0.02350576 -0.044976898 -0.043990135 -0.0023533835
-0.0674229 0.051662043 0.05885688 0.019449577 -0.020980773 0.06593321 0.042844288 0.070157476
0.076074734 -0.011349007 0.02221745 -0.01633089 0.059972998 -0.046545528 -0.089240976 -0.0056699915
-0.03394035 0.07504292 0.054136224 -0.038307004 0.103348754 0.10522278 0.08454238 -0.05291783
0.018966848 0.03457359 -0.043649986 0.07158943 0.04785094 0.053614922 -0.043944452 -0.0059936075
0.06802863 0.044238687 0.04196635 -0.07798507 0.08379446 0.0045370143 0.029100902 -0.006497112
0.017613849 -0.030284155 0.041045308 0.01754276 -0.024976794 0.1054052 -0.013778848 0.079436384
0.08691498 -0.053245597 0.031003635 0.028044531 0.08473929 -0.06835826 -0.050545976 0.048827358
0.048265327 -0.012833473 -0.07037188 0.03851251 -0.04355088 0.044847704 0.08128728 0.06264786
0.01193268 0.0013430933 -0.047136184 0.047210447 -0.0004424094 -0.03189747 -0.02101391 -0.0058753155
0.023199614 -0.06406013 -0.022228695 0.032334175 -0.052348245 -0.0017264582 -0.06758395 -0.06115657
0.051468175 0.08235723 -0.06187023 -0.0041996543 -0.053575236 0.06667541 0.019040167 -0.05587468
0.06407336 0.026505832 -0.023091197 -0.067526035 -0.039019834 0.025002087 0.0037033844 -0.032560416
-0.0071746474 -0.03598738 -0.066925265 0.014835684 -0.015828824 -0.02315042 -0.051126655 -0.05210059
-0.002303982 0.059010867 0.08323153 0.06543638 0.018245546 0.11384658 0.033474244 0.033769317

features.4.bias f4 [32]
00000000: 2f32 8e3d 5f32 18bd 9a2a 7abd 8469 0abc
00000010: b26c 3e3d 106d ae3c aae6 84bd bd33 e93b
00000020: 22bf 663c 7e41 7c3d 2054 94bd 3165 38bd
00000030: de1e 713d 328b 923d ab96 7c3d 1995 c5bc
00000040: 790c aabd b0f6 b63c cb23 80bd a416 933c
00000050: 6d83 273c fe80 ea3c b670 8f3d fe1e c2bc
00000060: 4390 5bbd e20b 45bd 9931 5ebc 6db6 803c
00000070: 51d1 353d 9767 f43c c8fe e93c 15aa 3b3c
0.069431655 -0.037157413 -0.061075784 -0.008448008 0.04649038 0.02129224 -0.06489308 0.0071167634
0.014083656 0.061585896 -0.07242608 -0.04501838 0.058867328 0.07155456 0.061667126 -0.024118947
-0.0830316 0.022334427 -0.06256827 0.017955132 0.010224205 0.028625961 0.0700392 -0.023696419
-0.053604376 -0.048107035 -0.01356163 0.015711987 0.044389073 0.029834552 0.028563872 0.011454125

features.5.weight f4 [32]
00000000: d723 833f 5ce2 853f 9269 853f 4da9 833f
00000010: 1ae1 833f d96e 873f b11b 853f 6da4 833f
00000020: d635 893f 6e1b 883f 276f 853f 8c54 853f
00000030: 492e 873f de46 853f e8de 843f 01d6 843f
00000040: e37f 873f e904 823f ac6e 863f b2fc 883f
00000050: 9076 823f be35 8d3f 5ce4 853f 3499 853f
00000060: 19fb 853f ed55 843f 5f2a 853f 26bd 853f
00000070: 5afd 863f b44a 8b3f b38e 873f 2532 863f
1.0245312 1.0459704 1.0422843 1.0286041 1.030307 1.0580703 1.0399076 1.0284554
1.0719554 1.0633371 1.0424546 1.0416427 1.0561 1.0412252 1.0380526 1.0377809
1.0585903 1.0157748 1.0502524 1.0702116 1.0192432 1.1032026 1.0460315 1.0437379
1.0467254 1.0338722 1.0403556 1.0448349 1.0546067 1.0882173 1.0590423 1.0484053

features.5.bias f4 [32]
00000000: 0a34 69bb 7b69 a33c 4c22 ebbc c30f 393c
00000010: 0392 2e3c a8d1 a93c 35be 263c 955b 10bd
00000020: 3840 0b3d 66e4 c43b 10ef 0c3c f38e babc
00000030: 9b78 0f3c cb47 8d3c 8489 a43c 000c 03bc
00000040: a207 2e3d 5078 a03c bf7b 1dbc 6ca7 243c
00000050: 4bad 883b 8d26 773c 389c 8f3c 1677 973c
00000060: eab5 563b 4b61 8a3c 7a6e d3ba 7595 f9bb
00000070: 015e 153d 07be 8d3b d019 da3c 5f90 193c
-0.0035583996 0.019947758 -0.028702877 0.011295262 0.010654929 0.020729855 0.010177185 -0.03524359
0.03399679 0.0060086725 0.008601919 -0.022773242 0.008756782 0.017246148 0.020085104 -0.0079984665
0.042487748 0.01958862 -0.009612023 0.010049682 0.0041710488 0.015084875 0.017530546 0.018489402
0.0032762238 0.016892096 -0.0016130947 -0.0076166936 0.036466602 0.0043256315 0.026623636 0.0093728

features.5.running_mean f4 [32]
00000000: 93a7 033d 27d6 2d3f f344 6f3f 4387 56bf
00000010: 9723 9f3e 4c3c 223f ba00 85bf fc54 5d3f
00000020: 750c 1f3f 768f 673f 95fe 033f 64f2 203f
00000030: d107 763f e3b7 84bc b319 0bbf 6492 e13e
00000040: e36c be3d 3e3f 1bbf 8c74 873f af1e ca3e
00000050: 6b77 0d3e 7de3 2d3f 9bc9 f1bd 9831 083f
00000060: 2700 5d3e 1329 5fbf 657d 073f 0fc7 10be
00000070: e365 72bf c5ab f83e facf 41be abad e43e
0.032142233 0.67904896 0.93464583 -0.83800143 0.3108184 0.63373256 -1.0390847 0.864578
0.6212838 0.9045328 0.51560336 0.6286986 0.96105677 -0.016200965 -0.5433609 0.44057
0.09298112 -0.60643375 1.0582442 0.39476535 0.13815086 0.67925245 -0.11806031 0.53200674
0.2158209 -0.8717205 0.5292571 -0.14138435 -0.94686717 0.4856855 -0.18926993 0.44663748

features.5.running_var f4 [32]
00000000: 3c09 3e3e b344 893e 9143 313f c518 9d3f
00000010: 0339 6f3e 40bb fe3e db35 943e fa73 fa3e
00000020: 7c35 7d3e 43c6 063f 3523 9e3e ef96 ed3e
00000030: eee3 cd3e 644c 243e d808 323f 0193 dd3e
00000040: 1a5c 253f b066 843e 648f 1e3f bfff 093e
00000050: 92dc 583f dad9 4b3e 49b1 5c3e 00b6 8f3e
00000060: 0d04 193f 6f77 243f b681 1b3f 3114 423e
00000070: eb8c 5a3f 62d9 3a3e 24b1 a93e 32b3 833e
0.1855821 0.26810226 0.69243723 1.2273184 0.23361592 0.49752235 0.28947338 0.48916608
0.24727434 0.52646273 0.30886236 0.46404216 0.4021296 0.16044766 0.69544744 0.43276218
0.6459366 0.25859594 0.61937547 0.13476466 0.84711564 0.19907323 0.21552004 0.28068542
0.59771806 0.6424474 0.607448 0.18953015 0.85371274 0.18246987 0.3314296 0.25722653

classifier.0.weight f4 [64, 512]
00000000: f54a 473c 89bc 0a3d b800 863b 7aa0 073d
00000010: ed67 123c d075 24bd ba10 07bd cd46 7e3c
00000020: 1d00 be3c 9088 d1ba 879c bb3b c195 a53c
00000030: 9aae 43bd 0a05 34bd eba2 cdbc 00bd 8fba
00000040: 76ea 2ebd a743 23bd 57d7 74bc 813b 92bc
00000050: 8007 11bb f7f9 ebbc b593 263d 68fe 153c
00000060: 5b9f 31bd c6ce a93c 603d e43b 9bf1 0dbc
00000070: 584d e0bc e213 6cbc 816e babc a63d 74ba
00000080: 70a5 e2bc 594a b6bb 39de 61bc 52c6 973c
00000090: 3c5a 503c 902f fbbc 23d3 0bbd 997b 183b
000000a0: 115e bfbc 5a39 cc3c 5064 403c ff4e c43c
000000b0: b11d 05bd 2195 c23c 15a7 0c3d 2190 94bc
000000c0: 090d 1e3d 946d 84bc 0001 69bc 2afe e93a
000000d0: 00e1 203c 8e04 c13c 9059 3abc 1853 39bd
000000e0: 66e0 c13c 89c2 95bc 7811 3c3c 2e58 073d
000000f0: 0024 6fba c263 fabc ccde 0bbc e967 f23b
00000100: 4264 31bd 2151 2e3c 8993 05bd 8cc6 a03c
00000110: 5208 c53c 3148 45bd f555 48bd 7b4b c43c
00000120: 0301 2cbc 2873 9b3b e552 2dbd 7884 43bd
00000130: d151 5b3b 0d5c 1c3c 830a 8fbc 02c0 49bd
00000140: 59bc 21bd aaf4 9cbc 5273 7dbb c95e 16bd
00000150: b585 26bd 1f54 debb d64c 0d3d be30 1d3c
00000160: f2e4 093d dba6 1a3d eb17 07bd e017 ee3c
00000170: ed1a e93c 1258 f1bc bc3d 173c 36ce 38bc
00000180: a1e3 133d b0d2 073d 9d7e ef3c e023 143d
00000190: 6410 103a bca1 983c b61e 24bd e195 3c3c
000001a0: 8c8c c83c 5ec0 3abc 3846 ceb8 4224 e73c
000001b0: bf84 503c 8954 05bd ed8b 32bd cf94 6fbc
000001c0: 14b7 49bd ad6b e3bc d8d9 1dbd 7e8a 3dbc
000001d0: 4c0c 063d aa0e 1fbd 0b67 10bd a717 d33c
000001e0: 9d6f d2bc 2f57 47bd c40d f5bc a021 32bd
000001f0: 339a b23c 4187 153d 400a 98bc 1545 17bd
00000200: 8ca3 ee3c fa3f 14bd 40b8 39bd 701f 38bc
00000210: 1bbf 48bd bb0e 263d 0d27 283d f1c4 71bc
00000220: 788c 13bd 3fd8 0f3d 8f9c 1d3d 0f20 eb3c
00000230: 48b8 923b 9a8b 8cbc 90cc ec3b 982b 1bbd
00000240: db07 cf38 9256 10bd 3069 e93c ea17 3a3b
00000250: ae61 93bc 9b27 8f3b 1282 a33a 3e11 0b3d
00000260: fc2e ce3c 5483 72bb 92ef ea3c fd8c 05bd
00000270: d712 a43c 6ac4 76bc e118 e4bc ae81 d3bc
00000280: f18e fbbc 7cf6 13bc c934 26bd c233 04bd
00000290: 3d6a 893c 407c 52ba 368e f43c 6a1c 9cbc
000002a0: 3e23 e13c 8c3b 36bc 7ebc cc3c a2ac 95bc
000002b0: c56f 34bd 7066 0b3c 4817 3f3c b393 80bc
000002c0: 1cbf 0d3c e8ce 6ebc 4ca8 273c 7e3a 063d
000002d0: c155 6a3b 3c4c 39bd 113c ecbc aeda 083d
000002e0: 11b9 823a 42de bdbb 284d 9abb a8c0 06bd
000002f0: 1ea0 223b b273 8cbb a7a5 d03c c2be 063d
00000300: 3508 43bc c0a0 dbbc 41e8 483c c72c 08bd
00000310: 3411 2fbd e4fe 043d 2df9 183c 40b5 c4bc
00000320: 7186 2bbd 4155 0b3d 49ee f8bc 00a4 5bbc
00000330: d131 39bc 41f5 0cbd cc3c 01bc 6779 31bd
00000340: b586 30bd 8817 d1bb fbc5 d7bc 5e50 0ebd
00000350: 668b 08bd 1d31 1ebd d510 8fbc 5b4e 90bc
00000360: 7b68 99bc 753c c8bc 887c 19bd 88ca ef3c
00000370: 009e 3cbd 8b5b 74bb 5e4f 0b3b 7c6f 1ebd
00000380: d68d 003d 994a 04bb 016e 963c 4912 54bc
00000390: c3ec dc3c 5010 863c 535c d73c f117 a33c
000003a0: 526e f83c 2731 a73c 7360 07bd 2d3a f4bc
000003b0: e87d 853b 6d09 11bd 71b6 083d 826b 1fbd
000003c0: cc23 893c 2f61 b23c 971a 653a 6b24 c73c
000003d0: ebc8 45bc 8762 1fbd d93f 733c 1ede 61bb
000003e0: 2a85 1abc d112 eebb 6a00 1ebd 392b 2ebd
000003f0: 69f8 ec3b 1c94 f93c 5f5f 08bd fb3a 09bd
0.012163867 0.033871207 0.004089441 0.033112027 0.008935911 -0.040151417 -0.032974936 0.01551981
0.023193413 -0.0015986133 0.0057254466 0.02021301 -0.047773935 -0.043950118 -0.0251021 -0.001096636
-0.042704068 -0.03985944 -0.014943919 -0.01785064 -0.0022129714 -0.028805716 0.04066821 0.009154893
-0.043364864 0.02072848 0.0069653243 -0.00866356 -0.02738063 -0.014409037 -0.02275777 -0.00093170477
-0.027666777 -0.005563062 -0.013785892 0.018527184 0.012716826 -0.030662328 -0.034136903 0.002326703
-0.023360284 0.024929691 0.011742666 0.02396345 -0.03249902 0.02375275 0.03433903 -0.018135132
0.03858665 -0.016165532 -0.01422143 0.0017852236 0.009819269 0.023561742 -0.011373892 -0.04524526
0.023666572 -0.018281238 0.011478774 0.03304308 -0.0009122491 -0.030565146 -0.008537006 0.007397641
-0.043308504 0.01063946 -0.032611404 0.019625925 0.024051819 -0.04816455 -0.0489101 0.023961773
-0.010498288 0.0047439523 -0.042315383 -0.047733754 0.0033465514 0.009543431 -0.017461067 -0.04925538
-0.039486263 -0.019159634 -0.0038673473 -0.036711488 -0.040654857 -0.0067849304 0.034497105 0.009594141
0.033665605 0.037756782 -0.032981794 0.029064119 0.028455222 -0.02946094 0.009231027 -0.011279633
0.036105756 0.03315991 0.029235179 0.036167026 0.00054956065 0.018631808 -0.04006835 0.011510343
0.02448108 -0.011398403 -9.835925e-05 0.028215531 0.012726962 -0.032551322 -0.043590475 -0.014622881
-0.049246863 -0.027761305 -0.03853783 -0.011568664 0.03272657 -0.038832344 -0.03525452 0.025768114
-0.025687987 -0.04866713 -0.02991379 -0.0434891 0.021802044 0.03650594 -0.018559575 -0.036931116
0.02913072 -0.036193825 -0.04534173 -0.011237964 -0.049010377 0.04054139 0.041052867 -0.014756427
-0.036022633 0.035118338 0.038479384 0.02870181 0.0044775344 -0.017156411 0.007226534 -0.03788337
9.8719924e-05 -0.03523881 0.02849254 0.0028395602 -0.017990913 0.004368735 0.0012474677 0.03395199
0.025168888 -0.0037004547 0.02867869 -0.03260516 0.020028515 -0.015061477 -0.027843894 -0.025818672
-0.030707808 -0.009030934 -0.040577684 -0.032275923 0.016774291 -0.0008029379 0.029852968 -0.019056518
0.027482625 -0.0111225955 0.024992224 -0.018270794 -0.044051904 0.00850831 0.0116632655 -0.015695428
0.008651521 -0.0145756975 0.010232996 0.032770626 0.003575668 -0.04523872 -0.028837236 0.033411674
0.0009973367 -0.0057943175 -0.004708905 -0.032898575 0.0024814676 -0.004286253 0.025469614 0.032896765
-0.011903812 -0.02681005 0.012262405 -0.033245828 -0.042741016 0.032469645 0.009336752 -0.024012208
-0.04187626 0.03401685 -0.03038706 -0.0134058 -0.011303381 -0.03441358 -0.00788803 -0.04332867
-0.043097217 -0.006380979 -0.026339522 -0.034744613 -0.033336066 -0.038621057 -0.01746408 -0.017615488
-0.018726578 -0.02444289 -0.037472278 0.02927138 -0.046049118 -0.003728601 0.0021257023 -0.03868054
0.031385265 -0.0020186065 0.018363 -0.012943813 0.026968366 0.0163652 0.02628914 0.019908877
0.030326042 0.02040918 -0.033050966 -0.029812897 0.004073847 -0.03540938 0.033377115 -0.038920887
0.016740702 0.021774856 0.0008739619 0.024309358 -0.012071828 -0.038912322 0.014846765 -0.0034464668
-0.009431163 -0.0072654267 -0.038574614 -0.04252169 0.0072317612 0.030466132 -0.033294078 -0.033503514

classifier.0.bias f4 [64]
00000000: 3102 053d abd1 66bc ffbe 8e3c 7cde dabb
00000010: e4fd f2bc 284c 1ebd e565 95bc 4f29 e1bb
00000020: 8a76 673d b027 35bd ed3a febc ea58 303c
00000030: cad8 033d 9f6a 15bd 471e 25bd 7b05 7e39
00000040: 72e3 1d3d b6f2 733d ec06 27bd 8b92 0b3c
00000050: e475 3d3c 29c4 e33c c2c3 1cbc bd34 12bd
00000060: 7fe7 b1bc ee1b 85bc d461 303d 1d43 80bc
00000070: 2455 763d 1ade 40bc 215b 283d 8f2f 20bd
00000080: cf36 76bc d9f5 d9bc 06b3 29bd a413 95bc
00000090: 75d4 c8bc 7121 40bd 51f0 3cbd c074 c0bc
000000a0: 3ab1 b83c 0157 ccbc 3b75 7cbc 08ae 13ba
000000b0: aa49 383d 6308 283a 6c9a d1ba 2b9f 283d
000000c0: 0407 593d 4d41 3dbd 8e91 32bc 87f5 393c
000000d0: 6e0f f63c 9a33 32bd b420 1d3d 9b3d 99bb
000000e0: 19a4 0a3d 982f 43ba ec8e 91ba 8fad 6b3d
000000f0: b1c3 b73c ea00 af3c 7398 ea3c c9e0 213c
0.032472793 -0.014088075 0.017425058 -0.0066793542 -0.02966208 -0.038646847 -0.018237064 -0.0068713794
0.056509532 -0.044227302 -0.031033957 0.010763386 0.032189168 -0.036478635 -0.040312078 0.00024225369
0.038546987 0.05955764 -0.040778086 0.008518825 0.011563752 0.027803497 -0.009568157 -0.035694826
-0.021716831 -0.01624867 0.043062046 -0.015657002 0.06013979 -0.011771703 0.041102532 -0.039107855
-0.015027716 -0.026606487 -0.041430496 -0.018197842 -0.02451537 -0.046906892 -0.04612762 -0.02349317
0.022545446 -0.02494383 -0.015408809 -0.00056335377 0.044992127 0.0006409941 -0.0015991456 0.04116742
0.052985206 -0.046204854 -0.010898961 0.011350042 0.030036654 -0.043506242 0.038361266 -0.0046765334
0.033847902 -0.00074457517 -0.0011105216 0.057538565 0.02243218 0.02136274 0.028637147 0.009880253

classifier.2.weight f4 [10, 64]
00000000: 744b e43d 8880 18bd 64cb 293c 5a3c 2fbc
00000010: 10de a33d 9afd bdbd 7d2f bcbd ae5d 02be
00000020: 2e33 a83d d4f6 a73d 581b 61bd dbbd 16bd
00000030: e9ed 213d bb80 9c3d fefc 34bd 0109 403d
00000040: 9a45 8ebd a94a 013e 283c 63bd c852 d5bd
00000050: 7f24 5c3c 318d f5bd 4f51 1a3e a2b1 08bd
00000060: 1822 423d a7e1 a23d 3206 2fbe 3ff5 cbbd
00000070: 2e64 4dbd 6c17 983d b128 18be be9f d1bd
00000080: e9c5 7cbd 13c5 cd3d 0e4d 913c 3a7b 013d
00000090: d622 63bd 37ea d3bd 4af0 973d 2ee9 a73d
000000a0: 1ace 4bbd 04cb 5f3c 2323 a13c 916e f03d
000000b0: 4876 033e b23b abbd a157 82bc d73c 92bd
000000c0: 655c 8fbb 58e4 863d 6a45 cebd ddc0 e23c
000000d0: bd22 93bd 5f95 fcbd 0c8b 08be ba31 eb3a
000000e0: 69f9 013d d340 dc3d 2ec1 2d3c c7b2 47bd
000000f0: 4bcb d4bd 4623 80bd ccca 5b3d fe92 c1bd
00000100: 07f1 ab3d 9559 b13d cf5d 3d3d 6e20 653d
00000110: 2b94 bb3d 172a e03d 9c29 fbbc 15ae 39bd
00000120: 19c3 8e3d 3ca9 d73d 7056 64bc eb96 953d
00000130: b665 2cbd 2551 90bd 31d9 23bd c05c 91bd
00000140: 46a1 1bbe fdb9 e63d 2f7c 6ebd eae2 403d
00000150: c132 b23d bf37 9f3d f189 00be 53f0 183d
00000160: 6b00 aeb8 7821 823d f879 713d 838d 0d3b
00000170: 5493 a73d 2574 cd3c 5cab d33d 242c a03d
00000180: 595c d93d 3139 d3bd 45bf f7bd e1aa c7bd
00000190: 810f c83d faac 4abc 13a9 d7bd d244 993c
000001a0: 7216 e8bd 541c 0e3d 98b5 c8bd b608 be3b
000001b0: 2787 cabd 12e2 67bd ec1e 9f3d b8e3 babd
000001c0: 470d 083e 8c27 82bb 2de1 d2bd f38f e2bc
000001d0: 2cd0 823d 4799 a63d ee67 b93d 6e5f ef3d
000001e0: f8d4 1b3e 04d8 b73d cc93 de3d b03a 05be
000001f0: dbcf 71bd 0253 91bc 5d95 863d b7b1 e93d
00000200: f78d b1bc f98b e73c c181 19bd 2083 a1bd
00000210: 9c67 39bd a9ab 7d3d 0b45 8d3c 14a6 3cbd
00000220: eaf1 923d ec8b 8d3d 2d41 f13c 5550 eebc
00000230: e95f 00be 8b7e 31bd 4e1e 9ebd 3a8f 8f3c
00000240: bc6e 023d 23a6 0d3e 68e5 02be 7945 413d
00000250: cf64 d83d e8bd 803d a6ee b53d 7f6a 943d
00000260: 48ac 7d3d bfde d3bd c531 67bc 848a 123e
00000270: ba78 4b3c b7a5 cdbd 2731 013e 2b21 f0bd
00000280: add8 b13d 3c4d c03d 066f fd3d de52 8b3d
00000290: ff32 483d 91d0 92bd 36f5 4dbc f91d 193d
000002a0: 7a11 44bd 7fe3 88bd 694e 75bd 1601 edbd
000002b0: 62c6 11bd 6ecb cfbd 55ae 2c3d 9119 843c
000002c0: 02a2 aebd 874b a5bd 0b1c cabd 782e b73d
000002d0: 1f4d a3bd 0fcd eb3c a10a eebd ed8f da3d
000002e0: a265 9dbd cc32 fc3c 59f9 82bd ca59 883d
000002f0: 02fd a9bd 8c1e c9bd 2f16 8cbd 3322 83bc
00000300: 2fe9 ecbc b4e8 efbd 97f8 05bd 5a8a f5bd
00000310: d2b5 bcbd 3a42 dc3d 81d1 c53d 43e3 10bd
00000320: 3856 b93d 80b0 e5bb dc8e 15bd 81c1 c43d
00000330: 48df 79bd a146 9bbd bd09 afbd 78fe a93d
00000340: e41f babd 0e09 043e 7141 01bd 5ba7 393d
00000350: 833e da3d 71f9 3d3d 5748 073d b256 663a
00000360: 8a74 853c f0aa c0bd 37af bb3d edad 9c3d
00000370: 34b0 ad3d 406d 2cbd 7dde 65bd fffe 20bd
00000380: cbe5 cd3d 437d e2bd 3ab3 9abd 2d63 213d
00000390: c986 d23d 0742 afbd 91c4 e4ba e340 073c
000003a0: a0a8 94bd c4f2 e13d 0c48 e23d ebf7 d3bd
000003b0: d2ce 993d ef01 fa3d d4d1 58bd f929 8cbc
000003c0: a1aa c43d 9f03 8c3d b90f e03c ff56 d7bc
000003d0: ffdf d5bd 4dd9 8c3d 39e2 45bc 7317 bdbd
000003e0: a32e 143d 9bbc 443d a411 873d e755 a1bd
000003f0: 4a81 7cbd c1ef 703d dc86 03be dda5 d43c
0.11147204 -0.037231952 0.0103634335 -0.010695541 0.080013394 -0.09276886 -0.09188745 -0.12731048
0.08212887 0.082013756 -0.054957718 -0.036802154 0.03953353 0.07641741 -0.044186585 0.046883587
-0.06946869 0.12626137 -0.05547729 -0.1041618 0.013436436 -0.11989821 0.1507008 -0.03337253
0.047395796 0.07953196 -0.17092207 -0.09958886 -0.050144367 0.07426342 -0.14859273 -0.102355465
-0.06171218 0.100473545 0.017736938 0.03161166 -0.055453144 -0.10347407 0.074188784 0.08198772
-0.0497571 0.013659243 0.019670075 0.11739839 0.1283809 -0.08360995 -0.015910925 -0.071405105
-0.004375028 0.06586522 -0.100718334 0.027679855 -0.0718436 -0.12333178 -0.13334292 0.0017943897
0.031731997 0.10754552 0.01060514 -0.04875448 -0.103903376 -0.06256728 0.0536602 -0.09451865
0.08395582 0.086596645 0.04623204 0.05593913 0.0915912 0.10945528 -0.03065949 -0.045332033
0.06970806 0.10530326 -0.013936624 0.07304176 -0.042089187 -0.07046727 -0.04000205 -0.07097769
-0.1519824 0.11265943 -0.0582239 0.047091402 0.08701087 0.077743046 -0.1255262 0.037338566
-8.2970444e-05 0.0635404 0.05895421 0.002159924 0.081823975 0.025079796 0.103354186 0.07820919
0.10613317 -0.10313643 -0.12097029 -0.097493894 0.09768582 -0.012370342 -0.10530295 0.018709574
-0.11332406 0.034694985 -0.09800261 0.0057993783 -0.098890595 -0.05661208 0.0776957 -0.09125465
0.13286315 -0.0039719995 -0.10296855 -0.027656531 0.06387362 0.08134704 0.09053026 0.11688124
0.1521796 0.089767486 0.10868034 -0.13010669 -0.059036117 -0.017739777 0.065714575 0.114108495
-0.02167414 0.028264986 -0.03747726 -0.07886338 -0.045264825 0.061931286 0.017244836 -0.046056822
0.07175048 0.069114536 0.029450024 -0.02909104 -0.12536587 -0.04333357 -0.07720624 0.01752435
0.031843886 0.13832907 -0.12782824 0.047185395 0.10566103 0.06286222 0.08883409 0.07246875
0.06193188 -0.1034522 -0.014110987 0.14310652 0.01241892 -0.10041373 0.12616406 -0.11725076
0.08683906 0.09389731 0.12374692 0.06802915 0.04887676 -0.07168687 -0.01257067 0.0373821
-0.04786823 -0.066840164 -0.05988923 -0.11572473 -0.035589583 -0.10146223 0.042158443 0.016125472
-0.08526994 -0.08071046 -0.0986863 0.0894441 -0.07973694 0.028784303 -0.11623121 0.10671983
-0.076854005 0.03078594 -0.063952155 0.06657751 -0.083002105 -0.098202795 -0.06840169 -0.016007518
-0.028919784 -0.117143065 -0.032707777 -0.11989279 -0.09214367 0.10754819 0.096591 -0.035372984
0.09049648 -0.007009566 -0.036513194 0.096072204 -0.061003953 -0.07581831 -0.08546779 0.08300489
-0.09088114 0.12894079 -0.03155655 0.04532562 0.106564544 0.046380464 0.033027973 0.00087867223
0.016290922 -0.09407604 0.09164279 0.07650361 0.08480874 -0.042096376 -0.056120384 -0.039305683
0.10053595 -0.11059048 -0.07553716 0.039401222 0.102796145 -0.085575156 -0.0017453601 0.008255216
-0.07258725 0.11032632 0.11048898 -0.10350021 0.07510151 0.122074 -0.052934483 -0.017109858
0.096028574 0.06836628 0.027351247 -0.0262866 -0.104431145 0.06877384 -0.012077861 -0.09232988
0.03617729 0.04803143 0.065951616 -0.07877713 -0.061646737 0.058822397 -0.12844414 0.025957996

classifier.2.bias f4 [10]
00000000: 80cb 8fbb 8d0f abbb 53db 7b3c f368 16ba
00000010: e9fa 9dbd cfd6 acbd 514c ecbd 2a92 22bd
00000020: 6a3a e4bd 2a43 a93c
-0.0043882728 -0.0052203597 0.015372115 -0.00057376846 -0.07713873 -0.08439409 -0.11537994 -0.039690174
-0.11143954 0.02066191
